model/model.pth (torch, 16787 bytes, 4 tensors)

linear1.weight f4 [256, 11]
-0.1776433 0.27345335 0.1676866 -0.112841256 -0.31681016 -0.011761352 -0.22005425 0.08486954
0.12820558 0.18167484 0.02710774 0.2685482 0.29406828 -0.03006151 0.257811 0.24547246
0.25224882 -0.2615747 0.2219467 0.048228443 -0.25928915 -0.1547952 0.25427407 0.005781476
0.27772307 -0.37527174 -0.09543489 0.03254451 0.25919637 -0.3771559 0.028724525 -0.127517
0.13203345 -0.15599582 0.33932808 -0.23150752 -0.14783274 0.27642226 -0.25713226 0.29485416
-0.1457477 -0.13585305 -0.14051895 0.24305211 0.21518618 -0.14067742 -0.13717648 -0.14840989
-0.11130037 0.08772913 -0.02060977 -0.17779982 -0.04638079 -0.26977745 0.17935124 0.027067674
-0.2113877 -0.14887632 -0.07653476 -0.15210831 -0.15240002 -0.087098464 -0.29250106 -0.29177693
0.14851911 -0.2625013 0.17708842 -0.3332516 0.20150328 0.11192753 0.22529726 -0.19749273
0.18748018 0.14570008 -0.07425533 0.1398485 -0.10999543 0.024945647 0.38007388 -0.022782335
0.19694376 0.24613497 -0.24068406 -0.052372005 -0.0790713 0.13849595 -0.26514235 -0.02352333
0.15491606 -0.2547263 0.3379019 -0.164327 0.11241646 -0.12776889 -0.19945082 0.23413937
-0.013974433 0.17734908 -0.121102996 0.040353794 0.25361404 0.12812252 -0.076475106 -0.29744458
-0.11037674 0.31104037 -0.15518434 -0.15632805 0.25404966 -0.21206897 0.055453252 0.15432775
-0.24210271 0.0038896787 -0.14177635 0.32060868 -0.10256653 0.051772043 0.08147524 -0.21743236
-0.28434238 0.1089798 0.40305704 0.31995866 -0.022117788 -0.05415622 0.2564015 0.25833488
0.30961716 0.028586816 0.07641813 -0.3166621 0.16771345 0.43207836 -0.12731789 0.30754194
0.2975887 0.12580582 0.2766365 -0.059710182 0.23078144 0.15310736 0.11433391 0.065458655
0.18968384 -0.1551845 0.02489561 -0.18478571 -0.13229994 -0.121889316 0.005722426 0.17482
0.22146824 -0.25952792 0.17786586 -0.36280704 0.32372653 -0.17493215 0.05955735 0.18805595
-0.17923293 0.12255682 -0.023147142 -0.23430094 -0.099673234 -0.25009483 0.21968916 0.15961953
0.098182246 -0.06715024 -0.20956475 0.0058778916 -0.15911727 0.14278336 -0.10332937 -0.35103264
0.04220924 -0.16955388 0.2784502 0.08813036 -0.06999818 0.20383927 0.19500847 -0.29215744
0.25841492 -0.13019799 -0.21760304 -0.22542201 0.20839967 0.19145763 -0.20483096 -0.17904034
-0.2234284 -0.12869902 0.23606299 -0.22425278 0.27296174 -0.14136693 0.36772022 -0.31439698
-0.043424886 -0.073994756 0.15436488 0.2634629 0.11648172 0.15833597 0.050606247 0.28938454
-0.20881242 0.09531582 -0.30115473 -0.022510245 -0.051337104 -0.23661107 -0.09613381 -0.26164252
-0.08551968 -0.01422543 -0.09722098 -0.013755872 -0.061614476 0.007212386 0.33537152 -0.054986157
-0.21345681 0.15955594 0.32646877 0.08760825 -0.118494734 0.31546655 -0.06350523 0.12569244
0.13211624 0.2712719 0.292619 0.21968807 0.06705158 0.14688928 0.27345484 0.12427815
-0.20922163 0.12698844 -0.30780184 0.45052564 -0.21315494 0.12396358 -0.02136298 -0.009491867
0.19686036 0.15021743 0.22348826 -0.13529141 0.042728946 -0.08351798 -0.027962862 0.24659683
00000000: 20e8 35be 1402 8c3e 09b6 2b3e 5119 e7bd
00000010: f134 a2be b0b2 40bc e755 61be 15d0 ad3d
00000020: 5348 033e f808 3a3e 0d11 de3c 267f 893e
00000030: 1e90 963e 8e43 f6bc ceff 833e 225d 7b3e
00000040: c226 813e 1eed 85be ff45 633e 308b 453d
00000050: 8cc1 84be a282 1ebe 3630 823e 8972 bd3b
00000060: b831 8e3e 9e23 c0be 5e73 c3bd 644d 053d
00000070: 63b5 843e 941a c1be b24f eb3c d193 02be
00000080: c733 073e 5ebd 1fbe 69bc ad3e 4f10 6dbe
00000090: 7761 17be 3887 8d3e d7a6 83be 20f7 963e
000000a0: e33e 15be 101d 0bbe 33e4 0fbe a7e2 783e
000000b0: c459 5c3e be0d 10be fe77 0cbe c3f8 17be
000000c0: 73f1 e3bd 55ab b33d d2d5 a8bc 2811 36be
000000d0: c9f9 3dbd 4520 8abe daa7 373e 07bd dd3c
000000e0: 0476 58be 0973 18be 42be 9cbd 48c2 1bbe
000000f0: c00e 1cbe ae60 b2bd b3c2 95be c963 95be
00000100: 6515 183e 9266 86be ab56 353e f49f aabe
00000110: e056 4e3e 433a e53d 53b4 663e 893b 4abe
00000120: cefa 3f3e 6732 153e 2e13 98bd 7234 0f3e
00000130: 4945 e1bd d05a cc3c 0b99 c23e 05a2 babc
00000140: a0ab 493e ce0a 7c3e e275 76be 0784 56bd
00000150: 22f0 a1bd e2d1 0d3e bdc0 87be 00b4 c0bc
00000160: 51a2 1e3e 7c6b 82be 7a01 ad3e 5645 28be
00000170: 9a3a e63d d9d5 02be d63c 4cbe 3bc2 6f3e
00000180: 05f5 64bc ff9a 353e d904 f8bd 054a 253d
00000190: b3d9 813e 8d32 033e fb9e 9cbd a84a 98be
000001a0: 330d e2bd af40 9f3e a5e8 1ebe 7614 20be
000001b0: cc12 823e 9c28 59be f322 633d 1808 1e3e
000001c0: c6e9 77be fbe9 7e3b d22d 11be d226 a43e
000001d0: 670e d2bd ec0e 543d 7edc a63d 97a6 5ebe
000001e0: 5395 91be cd30 df3d 7e5d ce3e 9fd1 a33e
000001f0: 5d30 b5bc ead2 5dbd 0f47 833e 7844 843e
00000200: 2486 9e3e e62e ea3c 1c81 9c3d 8921 a2be
00000210: 13bd 2b3e 6039 dd3e 9f5f 02be 2376 9d3e
00000220: 8c5d 983e 3ed3 003e 4da3 8d3e aa92 74bd
00000230: f851 6c3e 2dc8 1c3e e627 ea3d 300f 863d
00000240: 7b3c 423e b0e8 1ebe e1f1 cb3c 7738 3dbe
00000250: a379 07be 1ba1 f9bd 3083 bb3b 0404 333e
00000260: 92c8 623e d8e0 84be 7822 363e d8c1 b9be
00000270: 7cbf a53e 6a21 33be 68f2 733d bd91 403e
00000280: d688 37be 12ff fa3d 139f bdbc 96ec 6fbe
00000290: 7b21 ccbd 6e0c 80be 32f6 603e 4d73 233e
000002a0: c613 c93d 1186 89bd 2498 56be 549b c03b
000002b0: a3ef 22be cd35 123e 599e d3bd 8dba b3be
000002c0: 99e3 2c3d 889f 2dbe 0691 8e3e b17d b43d
000002d0: 355b 8fbd 3ebb 503e 4db0 473e a995 95be
000002e0: f64e 843e 9f52 05be 55d3 5ebe 07d5 66be
000002f0: b966 553e 780d 443e 35bf 51be 5a56 37be
00000300: 6aca 64be adc9 03be 7fba 713e 85a2 65be
00000310: a4c1 8b3e 7ec2 10be d345 bc3e a4f8 a0be
00000320: 4bde 31bd 908a 97bd d411 1e3e 9ce4 863e
00000330: f88d ee3d d322 223e 7f48 4f3d 362a 943e
00000340: ecd2 55be f134 c33d f430 9abe 6867 b8bc
00000350: db46 52bd 2c4a 72be cee1 c4bd 02f6 85be
00000360: f124 afbd c711 69bc cb1b c7bd 4f60 61bc
00000370: 765f 7cbd e155 ec3b d1b5 ab3e 2a39 61bd
00000380: 6c94 5abe a262 233e ea26 a73e f46b b33d
00000390: 5ead f2bd d584 a13e 080f 82bd 85b5 003e
000003a0: 7b49 073e 27e4 8a3e 28d2 953e e9f5 603e
000003b0: 5752 893d 256a 163e 4602 8c3e 8b85 fe3d
000003c0: 323e 56be 4209 023e 3498 9dbe 4cab e63e
000003d0: 4a45 5abe 9ee0 fd3d 6b01 afbc c783 1bbc
000003e0: c395 493e 99d2 193e 1bda 643e d589 0abe
000003f0: 8c04 2f3d 7a0b abbd 5f12 e5bc e183 7c3e

linear1.bias f4 [256]
-0.124513574 -0.13838384 -0.1093898 0.1802411 0.12755209 0.14777206 0.08346057 0.1405724
-0.00056879193 -0.24400283 0.23222381 0.33650795 0.27692157 -0.27889654 0.29602274 -0.013240075
-0.26620775 0.028716613 -0.26978475 -0.09995121 0.4055736 -0.0009524767 -0.0018389393 -0.2303303
-0.22077222 0.36441088 -0.01576619 -0.13501754 0.12490794 -0.16909176 -0.24121265 0.056351047
-0.0015448779 -0.2655347 -0.082431175 -0.25018632 -0.2053621 -0.036487155 -0.15738903 -0.23934658
0.14700115 0.2989353 0.1633486 0.20095365 0.09405728 -0.18420123 -0.091779076 -0.060233414
0.20787688 -0.028099388 0.13102117 -0.1086365 0.14851335 -0.1816871 0.30247432 0.24099962
0.20106609 0.20946926 0.049547613 0.19521584 -0.23190048 0.3712503 -0.29391137 0.06469916
-0.24004328 0.121819764 -0.24345791 -0.26432136 0.22137879 0.25914928 -0.16604432 -0.23277238
0.035440724 -0.25040573 0.08704801 -0.09208315 -0.25693852 0.13372105 -0.25220868 0.08347599
-0.34306306 -0.30735582 0.32266548 0.110691436 0.10179819 -0.069715 -0.015828537 0.069203176
0.13877834 0.16177346 0.30720693 0.072096154 0.09168446 0.20491463 0.26779383 0.14955163
0.26025468 0.18466644 0.13456605 0.03872796 0.05987306 -0.3265131 0.09448748 0.18935524
-0.22288609 -0.2611462 -0.21331051 -0.10020858 0.30674022 0.30395582 0.17984484 -0.07635056
-0.20249772 0.23754768 -0.27200073 -0.30929542 0.23420191 -0.025146658 0.1285449 0.0710145
0.3907138 -0.024763905 -0.17773615 0.22855337 -0.10554165 0.13504435 -0.05429864 -0.07909261
0.33105534 0.2197868 0.11780598 0.1290052 -0.08893223 0.070671715 -0.10842497 0.18544038
-0.24113454 -0.17515832 -0.03174819 0.10758223 -0.27680624 0.020505693 0.3666644 0.018919647
-0.14298846 0.11897953 0.26230374 0.25946054 0.26056013 0.06986949 -0.28509286 -0.23718181
0.3142347 -0.0010886966 0.079991385 -0.21461432 0.12115241 0.15812387 0.20186263 0.364593
0.15152688 -0.16235651 -0.13913013 0.10841211 0.060018737 -0.13729034 0.115514144 0.28479984
-0.030430002 0.13877273 -0.2736296 0.22379494 -0.1148078 0.12887752 0.15163562 0.1805913
0.3023212 0.104846194 -0.0019054267 -0.14019051 0.35891908 0.12719539 0.13285434 -0.09387168
0.10727613 -0.28864372 -0.041639745 0.26130134 0.21477006 0.26028785 0.26831067 -0.09792284
-0.13760033 -0.13326685 -0.18039083 -0.15045696 0.35705262 -0.27817452 -0.010737449 0.16917345
-0.09228738 0.18362957 -0.040234774 -0.13967274 0.3308718 -0.16843976 -0.20888779 -0.20422047
-0.2685475 0.38562635 0.2588418 -0.09908899 0.047319714 0.12601973 0.04428484 0.24674092
0.08678018 0.26480597 0.37203124 0.06625853 -0.11870326 -0.28244925 -0.09764058 0.29016158
0.07246484 0.3070307 -0.2074888 -0.11813397 0.1355067 -0.012962572 0.03361311 0.1614427
0.107180424 0.23492396 -0.023671448 0.060065925 -0.10735949 -0.21295254 0.0913989 -0.115575045
0.03941229 0.3708171 0.09731448 -0.19470382 -0.00222015 0.10228812 0.24922167 -0.09873498
0.06264062 -0.2846917 0.3454439 -0.12019946 -0.06283527 0.13433778 -0.17678411 0.257949
00000000: f900 ffbd 7eb4 0dbe c207 e0bd 1f91 383e
00000010: 049d 023e 8f51 173e 60ed aa3d 36f2 0f3e
00000020: fb1a 15ba e1db 79be 14cc 6d3e c54a ac3e
00000030: aac8 8d3e 87cb 8ebe 4b90 973e e6ec 58bc
00000040: 624c 88be 1a3f eb3c 3a21 8abe 38b3 ccbd
00000050: 58a7 cf3e a1af 79ba 9008 f1ba b5db 6bbe
00000060: 1d12 62be 1094 ba3e 1928 81bc 0a42 0abe
00000070: bccf ff3d 6426 2dbe 7300 77be 5bd0 663d
00000080: 807d caba 2af4 87be add1 a8bd 6c18 80be
00000090: 714a 52be 8e73 15bd 972a 21be 4517 75be
000000a0: 7887 163e 0c0e 993e db44 273e cbc6 4d3e
000000b0: 1aa1 c03d 3f9f 3cbe abf6 bbbd 50b7 76bd
000000c0: addd 543e b030 e6bc 6a2a 063e d07c debd
000000d0: e213 183e 2f0c 3abe eadd 9a3e 9bc8 763e
000000e0: 45e4 4d3e 1c7f 563e 70f2 4a3d a9e6 473e
000000f0: 5277 6dbe 8514 be3e 8d7b 96be fe80 843d
00000100: e8cd 75be a47c f93d 084d 79be 2155 87be
00000110: 1fb1 623e 37af 843e 8607 2abe e25b 6ebe
00000120: 4b2a 113d 2e35 80be 3a46 b23d 1796 bcbd
00000130: 728d 83be 2cee 083e 7f21 81be 76f5 aa3d
00000140: f6a5 afbe be5d 9dbe 6934 a53e 31b2 e23d
00000150: 927b d03d bdc6 8ebd d9aa 81bc 65ba 8d3d
00000160: e91b 0e3e f1a7 253e 3a4a 9d3e 26a7 933d
00000170: 10c5 bb3d 24d5 513e 461c 893e 1024 193e
00000180: 1a40 853e 3319 3d3e afcb 093e 36a1 1e3d
00000190: 743d 753d ba2c a7be a782 c13d 57e6 413e
000001a0: 403c 64be f4b4 85be 126e 5abe 283a cdbd
000001b0: 0e0d 9d3e 19a0 9b3e 3f29 383e af5d 9cbd
000001c0: 905b 4fbe b33f 733e ae43 8bbe f85b 9ebe
000001d0: a0d2 6f3e 5d00 cebc 46a1 033e 0d70 913d
000001e0: a40b c83e acdd cabc 7700 36be e509 6a3e
000001f0: 3826 d8bd 1149 0a3e 4068 5ebd 4efb a1bd
00000200: 1680 a93e ca0f 613e 4344 f13d f019 043e
00000210: 1a22 b6bd 55bc 903d e90d debd 15e4 3d3e
00000220: f9eb 76be b45c 33be 640a 02bd 1254 dc3d
00000230: 8cb9 8dbe 8efb a73c 70bb bb3e 60fd 9a3c
00000240: 916b 12be 8aab f33d ad4c 863e 03d8 843e
00000250: 2368 853e bc17 8f3d b1f7 91be cadf 72be
00000260: 5fe3 a03e 99b2 8eba 86d2 a33d dbc3 5bbe
00000270: c11e f83d 39eb 213e 14b5 4e3e efab ba3e
00000280: dd29 1b3e c940 26be 2178 0ebe 2b07 de3d
00000290: 35d6 753d d795 0cbe ae92 ec3d 49d1 913e
000002a0: 5748 f9bc 701a 0e3e 2e19 8cbe 802a 653e
000002b0: 5a20 ebbd 78f8 033e 5e46 1b3e edec 383e
000002c0: d8c9 9a3e 9ab9 d63d 83bf f9ba 1a8e 0fbe
000002d0: 3ec4 b73e 823f 023e f80a 083e cc3f c0bd
000002e0: 96b3 db3d 1cc9 93be 708e 2abd 4ac9 853e
000002f0: afec 5b3e 7344 853e 0460 893e c58b c8bd
00000300: 1ae7 0cbe 1b77 08be 60b8 38be 6411 1abe
00000310: 9acf b63e e46c 8ebe 20ec 2fbc ce3b 2d3e
00000320: 2a01 bdbd 6409 3c3e 38cd 24bd 5f06 0fbe
00000330: 0768 a93e 797b 2cbe aee6 55be 2c1f 51be
00000340: 0f7f 89be d170 c53e ea86 843e 2bef cabd
00000350: 51d2 413d 510b 013e 0564 353d a7a9 7c3e
00000360: cfb9 b13d a694 873e e17a be3e 8db2 873d
00000370: b21a f3bd 309d 90be c9f7 c7bd 0f90 943e
00000380: 7268 943d 2133 9d3e f277 54be 39f0 f1bd
00000390: 45c2 0a3e f860 54bc e7ad 093d 3c51 253e
000003a0: 6981 db3d e88f 703e a0ea c1bc b007 763d
000003b0: 4bdf dbbd 3b10 5abe 592f bb3d 9cb2 ecbd
000003c0: c86e 213d bddb bd3e d04c c73d 7060 47be
000003d0: f07f 11bb 6f7c d13d f733 7f3e 9135 cabd
000003e0: ba49 803d 1cc3 91be 06de b03e 222b f6bd
000003f0: c7af 80bd d88f 093e e506 35be e411 843e

linear2.weight f4 [3, 256]
0.122371465 -0.041296046 -0.07971312 0.08590047 -0.05702547 0.017203288 -0.06822389 -0.0024547796
-0.01804225 -0.059946418 -0.032842778 -0.078564584 -0.09027865 -0.018084295 -0.097040944 0.048003
-0.009856986 -0.010648063 -0.07132874 0.048118748 -0.06532052 -0.06987982 0.12405511 -0.0010764346
0.027151369 -0.08148109 -0.10699808 -0.042410456 -0.045534555 -0.042828787 0.010170032 -0.14454083
-0.07265108 -0.023616694 -0.04872022 0.11392987 -0.020223226 -0.051879507 0.10981067 0.024617396
-0.11249952 -0.12655376 -0.11266273 -0.06621484 0.058993172 -0.07847943 -0.10332979 0.091029175
-0.0078218505 0.15292233 -0.08187691 0.04717467 -0.116186485 0.0044621183 -0.078128256 0.004313449
0.025285402 -0.10008758 -0.08157468 -0.09395649 -0.02504733 -0.06337698 -0.0510121 -0.14893226
-0.00026856948 -0.039051816 0.008808538 -0.016164193 -0.09510232 -0.108583 0.088715956 -0.0003318682
-0.10448263 0.023362234 -0.17462966 0.11001252 -0.09371796 -0.012787914 0.023346787 0.06522109
0.037791286 -0.055176858 -0.03473319 0.16490978 -0.010226806 0.17586966 -0.13639303 -0.046896525
-0.086072035 -0.009875065 -0.09432601 -0.05950989 -0.14249438 -0.04176648 0.039841257 -0.0661805
-0.07763181 -0.13556914 0.040442813 -0.10226713 -0.077359654 -0.03784868 -0.10110572 -0.12048319
-0.1637992 -0.02278928 0.15291779 -0.113049515 0.04802499 -0.06233145 0.061924234 -0.060244136
0.005693816 -0.15500946 -0.0039984593 0.031579174 -0.06786422 0.05587122 -0.123592824 0.13662556
-0.12219299 -0.09285583 -0.015871702 -0.042563047 -0.04907824 -0.08804237 -0.04682666 0.014787425
-0.14866969 0.072707996 -0.0882505 0.01370751 -0.111706 -0.04747172 -0.09345581 -0.07112973
-0.020280406 0.049767878 -0.007357385 -0.0229459 0.028217252 -0.0849391 -0.09800094 0.12536614
0.062305123 -0.059387207 -0.04415816 0.09922366 0.040990923 -0.08155603 0.0010987271 -0.010169414
0.09870946 0.04232613 -0.077501215 -0.049442906 0.10857716 -0.017703056 -0.048448652 -0.09936906
0.008344474 0.007947816 -0.14463022 0.139797 -0.11995045 0.011639443 -0.12372235 -0.09535822
-0.07181527 0.079753496 -0.07566433 -0.04632626 0.044482604 -0.043497708 -0.06838214 0.055065546
-0.067516506 -0.032762524 -0.055023838 0.00640457 -0.12257052 -0.1206877 -0.1164044 -0.16077547
-0.11023261 -8.065979e-05 -0.062623024 -0.0791089 -0.047652293 -0.021078652 -0.12964424 -0.026096374
0.051293842 -0.09255106 -0.028145935 -0.07046981 -0.0710993 0.0041331053 0.03319509 -0.0023692197
-0.01407444 -0.10776747 0.04481474 -0.1486084 -0.1454551 -0.009529703 0.082620956 0.009450907
-0.13555941 -0.110684454 -0.07911442 -0.10323813 -0.097812936 0.07670507 -0.014896094 -0.021752689
-0.06779711 -0.10590864 -0.10904452 0.062270008 -0.014454358 -0.06986656 0.054925896 -0.10983843
-0.039182696 0.11188514 0.04772359 -0.0066363006 -0.10072022 -0.0117402 -0.087572016 -0.052425254
-0.0683017 0.040542014 0.0028078773 -0.00015140377 -0.10016246 -0.06634101 -0.051728647 -0.028718898
0.025986873 -0.13295232 -0.07452182 0.0014288435 -0.055746447 0.1540626 -0.062397733 -0.04936637
-0.14120969 -0.046582714 -0.097145535 -0.12276944 0.022223035 0.018307507 -0.07153039 -0.06343885
00000000: e49d fa3d 0b26 29bd a240 a3bd 96ec af3d
00000010: 8a93 69bd e9ed 8c3c f8b8 8bbd 5ee0 20bb
00000020: 57cd 93bc 608a 75bd 2686 06bd 78e6 a0bd
00000030: 03e4 b8bd 8425 94bc 67bd c6bd cb9e 443d
00000040: 327f 21bc 3775 2ebc cd14 92bd 2a18 453d
00000050: c4c6 85bd 271d 8fbd 9b10 fe3d 2717 8dba
00000060: 8c6c de3c 8fdf a6bd cf21 dbbd 96b6 2dbd
00000070: 7182 3abd 3d6d 2fbd 35a0 263c 8302 14be
00000080: 17ca 94bd cc77 c1bc da8e 47bd 1054 e93d
00000090: 2eab a5bc 9b7f 54bd 6be4 e03d 6caa c93c
000000a0: 2666 e6bd 4f97 01be b8bb e6bd a59b 87bd
000000b0: d3a2 713d d3b9 a0bd 929e d3bd 816d ba3d
000000c0: 3827 00bc ac97 1c3e 15af a7bd 3a3a 413d
000000d0: 2ef3 edbd f636 923b b501 a0bd d557 8d3b
000000e0: 5523 cf3c b8fa ccbd a010 a7bd 436c c0bd
000000f0: 0f30 cdbc cacb 81bd 10f2 50bd b381 18be
00000100: c9ce 8cb9 ccf4 1fbd b051 103c c56a 84bc
00000110: 01c5 c2bd c460 debd b6b0 b53d 99fe adb9
00000120: fdfa d5bd 2862 bf3c 1ed2 32be 3e4e e13d
00000130: 34ef bfbd 6684 51bc c341 bf3c a392 853d
00000140: 09cb 1a3d 2101 62bd 6444 0ebd 1cde 283e
00000150: 558e 27bc 2d17 343e 9daa 0bbe 9216 40bd
00000160: 8946 b0bd 06cb 21bc ff2d c1bd a4c0 73bd
00000170: 0cea 11be 5413 2bbd 9630 233d a489 87bd
00000180: 6dfd 9ebd a3d2 0abe 5da7 253d 6e71 d1bd
00000190: bd6e 9ebd 3807 1bbd 8410 cfbd e4bf f6bd
000001a0: faba 27be 96b0 babc 7b96 1c3e 8186 e7bd
000001b0: dab5 443d 434f 7fbd 44a4 7d3d 8ec2 76bd
000001c0: 3193 ba3b cdba 1ebe 8205 83bb 2a59 013d
000001d0: 65fc 8abd 38d9 643d 3c1e fdbd 92e7 0b3e
000001e0: 5140 fabd 332b bebd 5f05 82bc 9756 2ebd
000001f0: 4406 49bd 8f4f b4bd 50cd 3fbd f546 723c
00000200: de3c 18be eee7 943d aebc b4bd 7795 603c
00000210: 1ec6 e4bd b571 42bd c265 bfbd 77ac 91bd
00000220: 1823 a6bc 67d9 4b3d 3816 f1bb 0af9 bbbc
00000230: de27 e73c 8df4 adbd b8b4 c8bd fb5f 003e
00000240: a833 7f3d 0040 73bd 30df 34bd c635 cb3d
00000250: 19e6 273d d906 a7bd 2a03 903a 9d9d 26bc
00000260: 2f28 ca3d 2a5e 2d3d f5b8 9ebd a584 4abd
00000270: b45d de3d 0006 91bc 1872 46bd 0182 cbbd
00000280: 43b7 083c 8e37 023c f219 14be f226 0f3e
00000290: 95a8 f5bd 5db3 3e3c 2562 fdbd 2c4b c3bd
000002a0: e213 93bd cd55 a33d e6f5 9abd 9bc0 3dbd
000002b0: 6433 363d a72a 32bd ef0b 8cbd 698c 613d
000002c0: 1846 8abd ff31 06bd ad60 61bd 6ddd d13b
000002d0: 4106 fbbd 1d2b f7bd 6e65 eebd 53a2 24be
000002e0: a2c1 e1bd e527 a9b8 8040 80bd d903 a2bd
000002f0: 0d2f 43bd 23ad acbc 76c1 04be 10c8 d5bc
00000300: 7e19 523d 698b bdbd 4e92 e6bc 7a52 90bd
00000310: 839c 91bd 006f 873b 93f7 073d e944 1bbb
00000320: 7b98 66bc 31b5 dcbd a98f 373d cd2c 18be
00000330: 2ff2 14be 7922 1cbc 2d35 a93d fad7 1a3c
00000340: 16d0 0abe 88ae e2bd be06 a2bd 836e d3bd
00000350: 2652 c8bd 8c17 9d3d bf0e 74bc b232 b2bc
00000360: 36d9 8abd a1e6 d8bd bc52 dfbd d60e 7f3d
00000370: f9d1 6cbc 3316 8fbd faf9 603d f9f2 e0bd
00000380: 097e 20bd 0924 e53d d079 433d 5375 d9bb
00000390: 6746 cebd f859 40bc f558 b3bd ddbb 56bd
000003a0: c3e1 8bbd 620f 263d 5d04 383b 24c2 1eb9
000003b0: fa21 cdbd ccdd 87bd 6be1 53bd e543 ebbc
000003c0: 6ce2 d43c a724 08be e59e 98bd 0848 bb3a
000003d0: 6356 64bd 96c2 1d3e c494 7fbd 6434 4abd
000003e0: 4699 10be 84cd 3ebd 3df4 c6bd 8b6e fbbd
000003f0: 150d b63c a0f9 953c 867e 92bd 3aec 81bd

linear2.bias f4 [3]
-0.045716286 -0.06842393 -0.1531776
00000000: 0041 3bbd d821 8cbd 97da 1cbe
