model/model.pth (torch, 16787 bytes, 4 tensors)

linear1.weight f4 [256, 11]
0.30573493 -0.2155259 -0.34586242 0.1277263 -0.26501703 0.20068502 -0.14872333 0.23882797
0.12805451 0.20680839 0.050317988 0.09310459 -0.25204578 -0.13613015 -0.27457345 -0.207108
-0.21131347 0.171182 -0.21600118 -0.08519322 0.005850927 -0.14501235 -0.105161995 0.41364238
0.24847598 0.21848066 0.11463556 -0.204003 -0.049049303 0.14066893 0.026558816 -0.2000249
-0.20878126 -0.21607463 -0.053401813 0.031688847 0.016085478 -0.22686253 0.14023246 0.04462778
-0.09152701 0.0043901633 -0.14228165 -0.23956165 0.23323908 0.23955987 -0.06424623 -0.13644141
0.089839675 -0.27969804 -0.1325061 0.033484153 -0.21413702 0.060440276 -0.09708066 0.30856237
0.54598963 0.09252868 0.049450845 -0.075555876 -0.024464535 0.16747136 0.0113668125 0.014719963
-0.13610713 0.048869535 -0.00017124868 -0.21832898 0.59112227 -0.20876187 0.063228965 0.2068275
0.15812986 0.09229191 0.13086917 0.20074484 -0.30397666 0.38343734 -0.046269234 -0.32886133
-0.1693365 0.2223657 -0.19117989 0.23750474 -0.13241227 -0.2405905 0.0767253 0.00704311
-0.1170103 -0.12853381 -0.22404861 0.22533964 -0.23686108 0.13002671 -0.09836532 -0.0105653
-0.02277397 0.2209469 -0.2952773 -0.3458718 -0.20064935 0.01261236 -0.18379943 -0.06717781
0.06866488 0.09210553 0.11369675 0.119919986 -0.37498403 -0.3566913 0.17846984 -0.31140137
0.40978003 0.119549595 -0.11929778 0.07976116 0.23988464 -0.10628142 0.08367634 0.0057509276
-0.13527665 -0.2674796 0.52020884 -0.07206924 -0.05314399 0.09438083 -0.07523377 -0.16922446
0.021178776 -0.030117635 0.17499058 0.17149638 0.10678787 -0.2586172 -0.20956686 0.11605005
-0.016950864 -0.09941334 -0.3242359 0.24509725 -0.19364579 -0.27554962 -0.072286405 0.1857525
0.32347715 -0.24996856 -0.2502132 -0.22582859 -0.07133155 0.0773397 -0.23025453 -0.083584435
-0.21515658 -0.13478202 0.28551987 0.24069391 -0.06939765 -0.047498617 -0.20462948 0.12316059
-0.14014624 -0.0695283 0.06144932 -0.057174515 0.26066494 0.32012022 -0.26481968 0.49764818
-0.034843504 0.13894755 0.254468 -0.1269473 0.052831557 -0.030935083 -0.09015616 -0.19136798
0.1251781 0.25266722 -0.24934267 0.025178649 0.18620636 0.025574585 -0.035647828 -0.040426068
-0.09058254 0.011753291 -0.2696927 -0.050842013 0.18483269 -0.23240642 0.19909015 -0.13840751
0.22618607 -0.23359936 -0.08103891 -0.29245096 -0.12101989 -0.0900111 0.11826382 0.12533009
0.19707535 0.08887924 -0.2709593 -0.18244453 0.0037780716 -0.19741103 -0.14523013 -0.12150882
-0.088558294 0.12722145 0.1725177 -0.4121127 -0.23584518 -0.34006447 0.24429545 0.31168076
0.015751364 0.17020626 -0.021916348 0.0746634 -0.0068008457 -0.3700585 0.52489734 0.02147613
0.13710724 -0.13608213 0.15481105 0.2175745 0.037022423 -0.21188474 -0.2005317 0.48739126
0.13354073 0.56974715 -0.0034919137 0.007894363 0.04735709 -0.027934553 -0.15890071 0.08825176
0.25339115 0.13588963 -0.11882085 -0.28591326 0.5825897 -0.2059923 -0.050936878 0.036940664
0.0557288 0.24047183 -0.13604534 0.27897424 0.11568261 0.2488477 -0.2841247 0.6026042
00000000: 4a89 9c3e d2b2 5cbe e114 b1be afca 023e
00000010: 50b0 87be 6080 4d3e ee4a 18be 528f 743e
00000020: b920 033e 94c5 533e 3c1a 4e3d 9fad be3d
00000030: 250c 81be b465 0bbe e494 8cbe 1f14 54be
00000040: 8f62 58be 564a 2f3e 6a2f 5dbe c879 aebd
00000050: 22b9 bf3b 1e7e 14be 2c5f d7bd efc8 d33e
00000060: 7d70 7e3e 65b9 5f3e 0cc6 ea3d 2ae6 50be
00000070: ece7 48bd 840b 103e e091 d93c 54d3 4cbe
00000080: c1ca 55be ab42 5dbe dcbb 5abd 2acc 013d
00000090: b1c5 833c a74e 68be 1999 0f3e 9ecb 363d
000000a0: 8372 bbbd 5cdb 8f3b 48b2 11be a64f 75be
000000b0: 3ad6 6e3e 2f4f 753e 8793 83bd 4cb7 0bbe
000000c0: ddfd b73d 9534 8fbe aeaf 07be ae26 093d
000000d0: bc46 5bbe 3990 773d 3ad2 c6bd e3fb 9d3e
000000e0: fac5 0b3f ad7f bd3d f88c 4a3d 0abd 9abd
000000f0: d969 c8bc 9d7d 2b3e de3b 3a3c 002c 713c
00000100: ab5f 0bbe 6c2b 483d 3891 33b9 a291 5fbe
00000110: ca53 173f acc5 55be 307e 813d 97ca 533e
00000120: cbec 213e 8a03 bd3d 9102 063e 0e90 4d3e
00000130: d4a2 9bbe e651 c43e cf84 3dbd 8360 a8be
00000140: 8c66 2dbe d6b3 633e a9c4 43be 7134 733e
00000150: 1597 07be 5b5d 76be 2722 9d3d e4c9 e63b
00000160: 19a3 efbd 5e9e 03be 006d 65be 6fbf 663e
00000170: b68b 72be b925 053e c273 c9bd 141a 2dbc
00000180: 7a90 babc e73f 623e 962e 97be 1c16 b1be
00000190: 0677 4dbe 12a4 4e3c eb35 3cbe 8594 89bd
000001a0: 2ca0 8c3d d3a1 bc3d d7d9 e83d 9c98 f53d
000001b0: e8fd bfbe 3ea0 b6be ccc0 363e 0070 9fbe
000001c0: b0ce d13e 6bd6 f43d 6552 f4bd d259 a33d
000001d0: 52a4 753e 13aa d9bd 805e ab3d 4772 bc3b
000001e0: f685 0abe 16f3 88be 682c 053f 0a99 93bd
000001f0: 83ad 59bd bd4a c13d 2a14 9abd 2d49 2dbe
00000200: 1d7f ad3c 42b9 f6bc bb30 333e bf9c 2f3e
00000210: 99b3 da3d 7969 84be b298 56be a6ab ed3d
00000220: 8adc 8abc 3999 cbbd 3f02 a6be c6fa 7a3e
00000230: 154b 46be d714 8dbe e50a 94bd e735 3e3e
00000240: cc9e a53e c2f7 7fbe f21b 80be 9c3f 67be
00000250: 4716 92bd 4764 9e3d d8c7 6bbe 512e abbd
00000260: 0252 5cbe 4c04 0abe a92f 923e 7778 763e
00000270: 5b20 8ebd e98d 42bd 648a 51be 9f3b fc3d
00000280: 7f82 0fbe da64 8ebd 48b2 7b3d d32f 6abd
00000290: e075 853e cce6 a33e 7296 87be becb fe3e
000002a0: 10b8 0ebd 4448 0e3e a149 823e 79fe 01be
000002b0: e765 583d 926b fdbc cba3 b8bd f8f5 43be
000002c0: b02e 003e 995d 813e af53 7fbe 7443 ce3c
000002d0: e1ac 3e3e cb81 d13c 7503 12bd ce95 25bd
000002e0: 5783 b9bd e090 403c 2915 8abe b73f 50bd
000002f0: c844 3d3e f3fb 6dbe 4ade 4b3e b3ba 0dbe
00000300: 529d 673e ac34 6fbe baf7 a5bd 22bc 95be
00000310: 47d9 f7bd bd57 b8bd 4d34 f23d 8856 003e
00000320: 1fce 493e 5206 b63d 2dbb 8abe bdd2 3abe
00000330: 8699 773b 1e26 4abe 35b7 14be 9ed9 f8bd
00000340: 0d5e b5bd 5746 023e 7ba8 303e 7000 d3be
00000350: 6681 71be ee1c aebe 9628 7a3e 9f94 9f3e
00000360: 0109 813c 8d4a 2e3e ea89 b3bc 20e9 983d
00000370: a1d9 debb 4f78 bdbe ac5f 063f b5ee af3c
00000380: d765 0c3e 1d59 0bbe ca86 1e3e dacb 5e3e
00000390: d3a4 173d 50f8 58be 2f58 4dbe 598b f93e
000003a0: e7be 083e f3da 113f 97d8 64bb 5c57 013c
000003b0: 82f9 413d 01d7 e4bc deb6 22be 57bd b43d
000003c0: 7cbc 813e a726 0b3e 5958 f3bd 3963 92be
000003d0: 9924 153f a5ef 52be 30a3 50bd 184f 173d
000003e0: e243 643d 3f3e 763e 784f 0bbe b6d5 8e3e
000003f0: 01eb ec3d eed1 7e3e cb78 91be 4544 1a3f

linear1.bias f4 [256]
-0.01189773 -0.047107153 0.05555463 -0.21212009 -0.21859574 -0.010908343 0.2985397 -0.18910432
-0.27194387 0.023222199 -0.028786715 -0.13920546 0.0038399138 0.04587128 -0.21376447 0.19434063
-0.19289166 -0.29812628 -0.323648 0.009807613 0.25859714 0.02183857 -0.15235338 0.013363467
-0.26908693 0.2654531 -0.11726215 0.2254345 0.06560221 -0.28996333 0.29084915 -0.23031251
-0.047489043 0.19010192 -0.31533816 0.35570958 0.15212123 -0.18654317 0.14261355 -0.032369606
-0.062626936 0.12185151 -0.04300778 -0.013829817 0.030342901 0.3028977 -0.03433691 -0.106298976
0.20843425 0.07585558 0.182121 0.16947247 0.089085914 0.1977947 0.33392262 0.10334729
0.20731731 0.40420723 -0.102892935 0.21495932 -0.24396671 0.24402606 0.057485882 0.07063333
0.13517036 0.2089855 0.06194203 -0.21806921 0.18088685 0.26404136 0.31063876 0.22664289
-0.29561034 -0.28524858 0.24261296 -0.0220636 -0.1478884 0.3542304 0.2346633 0.11730078
0.10346682 -0.011413018 -0.21089533 0.09064644 -0.075414054 0.20021828 0.056112856 0.0023697433
0.03234418 0.010346358 -0.18520325 0.18469596 -0.287038 -0.24664345 0.21629511 0.16560937
0.0417783 0.059153743 -0.2166806 -0.1389162 -0.19966812 0.35610825 -0.076437175 -0.16485116
0.28783122 0.037931208 -0.10680939 -0.08689693 -0.18102136 0.042053055 0.22844791 -0.070928596
0.2694219 0.17174728 0.06828982 0.21503115 -0.025358055 0.12482782 -0.25132284 -0.21521442
0.30622816 0.121373355 -0.22113606 -0.24080285 -0.06327444 0.09854064 0.21919417 0.18118249
0.032494597 -0.24744438 0.30520827 -0.090635255 0.26004118 0.045164578 0.10417362 -0.13795668
0.1375996 0.030070746 -0.16574058 0.23368545 -0.043926165 -0.2660902 0.17434312 0.09439245
0.2003771 -0.03527209 0.17867695 -0.060050264 -0.046039846 0.004429872 -0.06769474 -0.32579356
0.284914 0.27351812 -0.0795846 0.2987876 -0.32394248 0.01682772 0.11041514 -0.03854511
-0.2022513 0.27827084 -0.22349246 0.16489384 -0.16833937 0.31858906 -0.014910367 0.08646164
-0.09864603 0.20021172 0.22894336 0.019356834 0.061909825 -0.031838182 -0.056841746 0.05040887
0.025841795 -0.21052127 -0.26467794 0.20975253 0.34335673 0.20208691 -0.01773268 -0.18751508
-0.15467231 -0.15265054 -0.06902154 0.33711347 -0.16582403 0.32969493 -0.01942453 -0.35726714
0.0011158459 0.06925622 0.0044778567 -0.25862145 0.20417754 0.019560723 -0.15675537 -0.2668017
-0.035596386 -0.12211801 0.30940914 0.08857317 -0.14566423 0.3137505 0.012344056 -0.31005445
0.34429312 0.19026858 0.27262765 -0.058312207 -0.319215 -0.075636104 0.2551533 -0.10730472
-0.061657462 0.2430455 0.19236001 -0.09255542 -0.29141518 -0.17003049 -0.122851625 -0.11078607
-0.2591397 -0.11034503 0.060223084 0.39024422 -0.32870096 -0.0382303 0.24278201 0.04224957
0.18582162 0.048733417 0.17061898 0.15466066 -0.34190857 -0.0041342676 -0.13738719 -0.09395557
-0.23767196 0.33144477 -0.1310865 0.19478874 -0.10706249 0.18752295 -0.0848692 0.26578772
0.21544161 0.104291625 0.2545564 0.07129309 0.081634164 -0.07468566 0.28231236 0.1713839
00000000: b2ee 42bc 6ef3 40bd 408d 633d 0236 59be
00000010: 90d7 5fbe e8b8 32bc 32da 983e 90a4 41be
00000020: 3a3c 8bbe 7b3c be3c 1ed2 ebbc e08b 0ebe
00000030: 10a7 7b3b 86e3 3b3d 13e5 5abe 3b01 473e
00000040: 6485 45be 02a4 98be 31b5 a5be 1cb0 203c
00000050: d866 843e cde6 b23c 8602 1cbe 71f2 5a3c
00000060: c3c5 89be 78e9 873e 2327 f0bd 4dd8 663e
00000070: 745a 863d 1376 94be 2eea 943e 0bd7 6bbe
00000080: df83 42bd 14aa 423e 0174 a1be 911f b63e
00000090: abc5 1b3e 2c05 3fbe 4909 123e fe95 04bd
000000a0: 8d42 80bd 498d f93d ed28 30bd 7596 62bc
000000b0: ad91 f83c 6815 9b3e dca4 0cbd 47b3 d9bd
000000c0: ca6f 553e 2c5a 9b3d ed7d 3a3e 318a 2d3e
000000d0: ad72 b63d b28a 4a3e e8f7 aa3e bea7 d33d
000000e0: fd4a 543e 40f4 ce3e 88b9 d2bd 4c1e 5c3e
000000f0: 69d2 79be f8e1 793e 5176 6b3d 35a8 903d
00000100: 196a 0a3e 4b00 563e edb6 7d3d 894d 5fbe
00000110: 673a 393e 6e30 873e 0b0c 9f3e 1315 683e
00000120: 3d5a 97be 1a0c 92be 886f 783e b9be b4bc
00000130: 0f70 17be b05d b53e 934b 703e 643b f03d
00000140: 6ae6 d33d abfd 3abc f2f4 57be d7a4 b93d
00000150: af72 9abd 0506 4d3e 98d6 653d b24d 1b3b
00000160: 557b 043d c583 293c eca5 3dbe f020 3d3e
00000170: a5f6 92be 1a90 7cbe 777c 5d3e 8195 293e
00000180: b91f 2b3d 324b 723d 85e1 5dbe 0c40 0ebe
00000190: cd75 4cbe d253 b63e 188b 9cbd bece 28be
000001a0: 9d5e 933e c15d 1b3d e2be dabd 05f7 b1bd
000001b0: aa5d 39be d33f 2c3d 40ee 693e 0343 91bd
000001c0: abf1 893e 85de 2f3e 88db 8b3d 2031 5c3e
000001d0: b2bb cfbc baa5 ff3d 63ad 80be 2b61 5cbe
000001e0: f0c9 9c3e 9892 f83d 7e71 62be 0695 76be
000001f0: 0896 81bd adcf c93d 7074 603e e787 393e
00000200: 0e19 053d 0f62 7dbe 4244 9c3e fa9e b9bd
00000210: 1e24 853e 7efe 383d fb58 d53d 8444 0dbe
00000220: e9e6 0c3e ed56 f63c e6b7 29be 3d4b 6f3e
00000230: eceb 33bd fa3c 88be 0187 323e d450 c13d
00000240: a82f 4d3e 7879 10bd 17f7 363e 44f7 75bd
00000250: 4794 3cbd 7628 913b 8aa3 8abd 6ace a6be
00000260: 3fe0 913e 910a 8c3e 40fd a2bd b0fa 983e
00000270: cadb a5be 49da 893c 5521 e23d 7ae1 1dbd
00000280: f71a 4fbe 8479 8e3e 35db 64be eed9 283e
00000290: 2861 2cbe 1b1e a33e 9d4a 74bc cd12 b13d
000002a0: ee06 cabd 4d04 4d3e 2170 6a3e 3992 9e3c
000002b0: 2895 7d3d c168 02bd e4d2 68bd 8879 4e3d
000002c0: 2cb2 d33c e392 57be de83 87be 5ec9 563e
000002d0: 74cc af3e dfef 4e3e 2044 91bc f403 40be
000002e0: 6b62 1ebe 6c50 1cbe 2a5b 8dbd 239a ac3e
000002f0: c6cd 29be c6cd a83e 3120 9fbc b8eb b6be
00000300: 9341 923a 34d6 8d3d fcba 923b 086a 84be
00000310: eb13 513e cf3d a03c 7b84 20be 3c9a 88be
00000320: 84cd 11bd 0219 fabd e06a 9e3e da65 b53d
00000330: 0129 15be e8a3 a03e b93e 4a3c 75bf 9ebe
00000340: 3047 b03e c4d5 423e da95 8b3e c8d8 6ebd
00000350: 2670 a3be 1ae7 9abd 74a3 823e 94c2 dbbd
00000360: 898c 7cbd ebe0 783e 06fa 443e b28d bdbd
00000370: 5f34 95be 791c 2ebe a299 fbbd cfe3 e2bd
00000380: f5ad 84be 93fc e1bd 7bac 763d 17ce c73e
00000390: 7e4b a8be 6097 1cbd d99b 783e e30d 2d3d
000003a0: 0648 3e3e b19c 473d beb6 2e3e 5d5f 1e3e
000003b0: a40e afbe c078 87bb 3aaf 0cbe c76b c0bd
000003c0: 4760 73be 21b3 a93e 8a3b 06be b376 473e
000003d0: 9443 dbbd 0406 403e e7cf adbd 5415 883e
000003e0: ba9c 5c3e d996 d53d 3755 823e 1d02 923d
000003f0: d02f a73d ccf4 98bd 3f8b 903e 437f 2f3e

linear2.weight f4 [3, 256]
-0.08453287 -0.018322526 0.047990672 0.008365203 0.031365767 -0.12292819 -0.019251691 -0.12255453
0.08993267 -0.18608849 -0.06866733 0.091834515 0.032330867 -0.00080897304 -0.058835287 -0.13862436
0.13292177 -0.12605587 -0.008076431 -0.1011953 -9.8889905e-05 -0.12118107 0.032893997 -0.074591145
0.09883116 -0.0888817 0.06253651 -0.1257774 -0.026514621 0.032031633 -0.07407709 -0.015847936
-0.0036073271 -0.14885494 0.050474122 -0.10985581 -0.030308934 -0.04235371 -0.09889271 -0.04923835
-0.075526625 -0.21961011 -0.14932457 -0.09514169 -0.13089661 -0.08157072 -0.02247679 0.13533308
-0.012205782 0.30121723 0.10763732 -0.17327791 0.15868868 -0.07137542 -0.17591873 -0.12682432
-0.13444586 -0.10685807 0.09510374 -0.061210632 -0.07276119 -0.14884725 -0.09170587 -0.06472907
-0.07342144 -0.14079958 -0.16469547 -0.020624664 -0.024110833 -0.025583219 -0.07577513 0.22430986
-0.017367333 -0.042575788 -0.12370018 -0.060390364 0.024212774 -0.18322468 0.14861472 0.070198625
-0.017430307 -0.015515826 0.09708003 -0.08978902 -0.0059738485 -0.0695307 0.028046437 0.0006481405
-0.050218273 0.18724823 -0.12133826 -0.008967949 0.014421802 -0.12491974 -0.064595416 -0.13769916
0.01941032 0.018591007 0.16109204 0.028945228 -0.21540138 0.015373777 0.077315435 0.09873319
0.045228828 0.106913194 -0.01337885 0.011403731 -0.04771118 -0.12491728 -0.17040978 -0.090334676
-0.14232789 -0.14955002 0.17938462 0.19819003 -0.014319272 -0.113412865 0.04293987 -0.06977898
-0.15230462 -0.16963913 -0.013192587 -0.008351356 -0.20825718 0.110754795 -0.064854376 -0.091943726
-0.11766256 0.056410138 -0.10455333 -0.10441927 -0.07023541 -0.028445594 0.05966979 -0.19309267
-0.15584038 -0.08710654 -0.09224351 -0.06350766 0.10453687 0.105622396 -0.07608534 -0.12604387
-0.041370206 0.00093784305 -0.13836488 -0.09307693 -0.078627646 -0.015815124 -0.14578387 -0.023379775
-0.032858036 -0.1133836 -0.0078035346 -0.02214083 -0.005260049 0.06356005 -0.07714766 -0.052310508
-0.07959788 0.17084913 -0.04982471 0.16954778 0.11056195 -0.060025048 -0.012494986 0.049423963
-0.10200529 0.13806376 0.097342215 -0.0005485223 0.030984474 -0.09268748 -0.058399495 -0.060171768
-0.050251257 0.07760044 -0.011464446 0.055145666 0.28692192 -0.09904176 -0.020328576 -0.05808932
-0.04454091 0.03618731 0.21521004 0.17951582 0.14846772 -0.10758146 -0.099446625 -0.033992123
-0.08037006 0.122738875 -0.08006118 0.00058582326 -0.096910484 -0.14433351 -0.017591283 -0.06739897
-0.14448181 0.2666491 -0.15643947 -0.1196994 0.08013761 -0.18950291 -0.09421429 -0.024897527
-0.097751364 0.09969282 -0.18867682 0.0221627 -0.016085621 -0.15771315 0.009387209 -0.059455693
0.0186207 0.01969121 -0.11958927 0.2694324 -0.010627914 -0.035980355 0.01760345 0.0969658
0.012152589 -0.18857889 0.11714598 0.17130618 -0.04358132 0.10783225 -0.053346798 -0.17278896
-0.011472727 -0.1722448 -0.029517755 -0.1503341 0.022133024 0.025052767 -0.061960295 -0.16230626
0.007654928 0.03823434 -0.17669342 0.29288644 -0.21015002 -0.028674794 -0.08006383 -0.1931353
-0.14352618 -0.010991177 -0.030343916 0.053258307 0.007286176 0.12832332 -0.10701445 -0.083076395
00000000: 921f adbd 1f19 96bc de91 443d 340e 093c
00000010: 6479 003d c6c1 fbbd b9b5 9dbc dffd fabd
00000020: 9f2e b83d fb8d 3ebe 75a1 8cbd bc13 bc3d
00000030: 5f6d 043d 4311 54ba 45fd 70bd 8bf3 0dbe
00000040: a51c 083e ca14 01be 0253 04bc 7b3f cfbd
00000050: 1d63 cfb8 c82d f8bd dbbb 063d 3ec3 98bd
00000060: fe67 ca3d 9c07 b6bd 2413 803d cacb 00be
00000070: 3135 d9bc 9a33 033d bbb5 97bd 88d3 81bc
00000080: e868 6cbb 6e6d 18be f4bd 4e3d 15fc e0bd
00000090: 714a f8bc 157b 2dbd 4388 cabd 27ae 49bd
000000a0: b4ad 9abd 79e1 60be 8ae8 18be a5d9 c2bd
000000b0: c309 06be 8d0e a7bd 3f21 b8bc c194 0a3e
000000c0: c3fa 47bc 2539 9a3e f570 dc3d c46f 31be
000000d0: 497f 223e 472d 92bd 0a24 34be 3cde 01be
000000e0: 2dac 09be 67d8 dabd c0c5 c23d 00b8 7abd
000000f0: d203 95bd 6a6b 18be 4ad0 bbbd ad90 84bd
00000100: fb5d 96bd c42d 10be eea5 28be 0ef5 a8bc
00000110: 1584 c5bc e693 d1bc fe2f 9bbd 7cb1 653e
00000120: f045 8ebc f363 2ebd 8556 fdbd e35b 77bd
00000130: de59 c63c 409f 3bbe 752e 183e 4cc4 8f3d
00000140: 01ca 8ebc 1736 7ebc e5d1 c63d 4ee3 b7bd
00000150: 46c0 c3bb 1d66 8ebd a4c1 e53c f9e7 293a
00000160: adb1 4dbd 00be 3f3e 3280 f8bd 4eee 12bc
00000170: 6c49 6c3c ecd5 ffbd 9a4a 84bd 0201 0dbe
00000180: 6402 9f3c 2b4c 983c 50f5 243e 8b1e ed3c
00000190: 2e92 5cbe 4be2 7b3c 8e57 9e3d a034 ca3d
000001a0: dd41 393d 4ef5 da3d f732 5bbc b7d6 3a3c
000001b0: cc6c 43bd a2d4 ffbd e77f 2ebe 6301 b9bd
000001c0: 67be 11be a423 19be 9ab0 373e 54f2 4a3e
000001d0: 619b 6abc 0145 e8bd b8e1 2f3d 48e8 8ebd
000001e0: bef5 1bbe e1b5 2dbe b825 58bc 20d4 08bc
000001f0: 5f41 55be 69d3 e23d 5fd2 84bd fe4c bcbd
00000200: 11f9 f0bd 510e 673d 0e20 d6bd c5d9 d5bd
00000210: 95d7 8fbd bc06 e9bc 4f68 743d 16ba 45be
00000220: 9f94 1fbe ea64 b2bd 2aea bcbd 4e10 82bd
00000230: 6d17 d63d 8e50 d83d a1d2 9bbd a511 01be
00000240: ce73 29bd 95d9 753a 86af 0dbe 1e9f bebd
00000250: 8807 a1bd b88e 81bc 5e48 15be f186 bfbc
00000260: 2696 06bd a935 e8bd cbb4 ffbb b060 b5bc
00000270: 7d5c acbb c62b 823d 98ff 9dbd 8b43 56bd
00000280: 3704 a3bd 13f3 2e3e ff14 4cbd ef9d 2d3e
00000290: 4e6e e23d d3dc 75bd c5b7 4cbc c870 4a3d
000002a0: 26e8 d0bd 9660 0d3e 5b5b c73d b5ca 0fba
000002b0: 27d3 fd3c efd2 bdbd 4f34 6fbd ac76 76bd
000002c0: 43d4 4dbd fbec 9e3d 5fd5 3bbc 6ce0 613d
000002d0: 6ee7 923e 68d6 cabd 1d88 a6bc 11ef 6dbd
000002e0: 8770 36bd 2539 143d 0560 5c3e ffd2 373e
000002f0: ec07 183e ab53 dcbd acaa cbbd 533b 0bbd
00000300: 0f99 a4bd 855e fb3d 1ef7 a3bd ef91 193a
00000310: 0179 c6bd 2acc 13be 981b 90bc 7908 8abd
00000320: 0af3 13be 3b86 883e ab31 20be f624 f5bd
00000330: 301f a43d 0d0d 42be 6cf3 c0bd e6f5 cbbc
00000340: de31 c8bd c02b cc3d 7f34 41be 8d8e b53c
00000350: fec5 83bc 8e7f 21be cfcc 193c d087 73bd
00000360: 708a 983c 764f a13c 38eb f4bd 0bf3 893e
00000370: b420 2ebc 2360 13bd 1c35 903c 0196 c63d
00000380: a71b 473c d31a 41be 3bea ef3d e36a 2f3e
00000390: 5482 32bd 28d7 dc3d 2c82 5abd 97ef 30be
000003a0: 1bf8 3bbc f160 30be 38cf f1bc 2ff1 19be
000003b0: 5150 b53c 763b cd3c 14ca 7dbd 9d33 26be
000003c0: 31d6 fa3b 9c9b 1c3d 1fef 34be 36f5 953e
000003d0: 9131 57be 67e7 eabc 81f8 a3bd 43c5 45be
000003e0: 87f8 12be 5614 34bc ce93 f8bc 6225 5a3d
000003f0: e0c0 ee3b 3067 033e 642a dbbd f523 aabd

linear2.bias f4 [3]
-0.01080776 -0.116167575 -0.041623138
00000000: 0813 31bc 44e9 edbd 067d 2abd
