snake-pygame/model/model.pth (torch, 16787 bytes, 4 tensors)

linear1.weight f4 [256, 11]
00000000: 8c47 bbbd 5212 7abd ad86 5bbc eae4 933e
00000010: d325 243d 539c 69be 10f5 d63c d00a 923c
00000020: 28b3 0c3e 13b1 1ebe 6a23 56be 9c82 be3d
00000030: 2573 63be 4b1f 57be d0ad 4ebd 446a 19bc
00000040: e791 8fbe 6427 893e 5aa6 663e f88b 453d
00000050: 3009 0bbe a503 a53d 57eb 3b3e 8ec7 313e
00000060: 9b16 48be 9c0a 873d cf60 ddbd f742 94be
00000070: 59c9 083e a4ee 7dbd 5ab3 90be 9bef 0dbe
00000080: c3ba 6abd b7ea 8ebe 662b 3f3e 9d8f 443e
00000090: 5528 7abd 8074 08be e450 b13d 5d16 c63c
000000a0: e6f5 77bb 9130 463e de82 b2bc b2fd 65be
000000b0: cd28 403e 6661 14be 74a2 263b 9a89 2bbe
000000c0: f724 fe3c c3f1 87be c1b9 16be 353c 3d3e
000000d0: b5c9 33bb 47c9 803e 7c8e d4bd 6190 893e
000000e0: 764b 13bd 30da 423e fc2e 0d3e 77df 4dbe
000000f0: 7f6e 7dbe 82cf 783e d4de 8ebc f560 bf3d
00000100: 594c 863e aadc 843e 62ed 2b3d a06b 59be
00000110: ad66 f8bd 5c26 343c 8514 51bd 493f c2bc
00000120: 5f9f dcbd 331a e73d 4725 6a3e 7868 02be
00000130: b913 8b3e 43c5 983e 56a5 e13d 6786 403e
00000140: 5b68 383e 6425 b63d 8018 b7bd c29b afbd
00000150: ce9a 3cbe 9acf 8e3e ee92 51be 8e4b a7bd
00000160: f9b7 81be db57 703e d8d2 40be e5cd 6fbe
00000170: 261c 83be aeea 923e 203b 803c 904e 973e
00000180: 13e3 0abe aa44 6bbe fe84 92bd 8a81 023e
00000190: 89f8 03be 99c0 13bb e4da 93be 9e65 8bbe
000001a0: 1959 06be 3c95 c23d 2ae8 96be bb25 7ebe
000001b0: a48d 463e deae 0b3d 1c62 683d a738 d4bc
000001c0: 937d 69be 25d6 893e 24d0 d63d 3f89 8dbe
000001d0: 3d1e 1e3d a8fa 39bd 8aad 5c3e d153 813e
000001e0: 869f b3bc 6f40 593e 0ae6 463e 3183 67be
000001f0: d4b2 79be ae2b 893e 955d 43be 87bb 163e
00000200: 70df 85be dea3 a0bd cdcf 443d 9baf 323d
00000210: 49b8 033e 9f4e 01be 00b5 403e 8b87 223e
00000220: e242 d13d ca2e 0a3e 9656 eb3d de2e 013c
00000230: 8e84 efbc f694 803d 809c d3bd b2c6 853d
00000240: 3552 b93a 41f6 323e 09bb f0bc 312b 13be
00000250: 6ceb 713e 36f6 ccbb 846f 98be eb11 dabd
00000260: 62c0 72be 7049 99bd c572 933e bf0e 10be
00000270: b9fb 873d 1bf1 da3d 20fc c1b9 5cbb d53d
00000280: ad7f d4bd b481 fabb f557 8dbe 7dbd a5bd
00000290: c355 763d 8c13 5ebe 8c12 113e 10d4 5f3e
000002a0: 7b75 f03d 8b75 803d 0d2c 31bd 4eaa 1d3e
000002b0: 82bf b0bb 223c 4dbe 5429 79ba 2e0a 82be
000002c0: 90a9 eebd 34af 553d d9b2 3e3e 864e 7d3e
000002d0: dc58 f83c 0c47 e73d 699b 51be 6f68 293e
000002e0: b05f 413e 079a 69bc 307b 0fbe 3f6f 84be
000002f0: 8411 35be 54e3 93be 0349 453e 96f9 8bbe
00000300: 37a1 c13c 9eb1 b0bd 567b 603e 8cfa 1e3e
00000310: 71b5 8fbc 5ee6 72be 04fd 2c3e 0bac 993e
00000320: e8da 5b3d 3ef8 72bc af04 e13d d0b2 023e
00000330: 87c4 393e 8a32 383e 63b6 ce3d ff9b 4ebe
00000340: 76b3 1b3e 7a9c 6bbd b049 083c 8f18 debd
00000350: 5e73 88be 128b e9bd 75bf 153e 7e0b b43d
00000360: 2fff af3c 41a1 013e fc5a 603e 9aef e13d
00000370: e7e8 24bd 64f8 a23d 9d5e 563e dcdf 9a3e
00000380: 994e 25be 301f 77be e9d8 2bbe 5ec9 883d
00000390: 77aa bebb 15d6 39be d0b3 92be 4b37 293e
000003a0: 8af4 293c dd6c 393e c9fb ad3c 0709 10bb
000003b0: 8a79 943e 0b1f 923e b173 82be 2706 92be
000003c0: 23ad b13d cb1a 20be 4b75 423e dbf3 8abd
000003d0: b043 13be 06c6 37bd f309 973d 9ffc b8bd
000003e0: 0ea1 65be 4fcf ee3d 3f31 1cbe 4201 83be
000003f0: 0705 33be 05e6 93be df8f 95be bade 5dbe
-0.09144506 -0.061052628 -0.013398808 0.28885585 0.040075134 -0.22813539 0.026239902 0.017827421
0.13740218 -0.15497236 -0.20911947 0.093022555 -0.22211893 -0.21008031 -0.05045873 -0.009363715
-0.28041002 0.26787865 0.22524396 0.048229188 -0.13577724 0.08057336 0.18351494 0.1736128
-0.19539873 0.065938205 -0.108094804 -0.2895734 0.13358058 -0.061995164 -0.28261834 -0.13860933
-0.057307016 -0.27913448 0.18668899 0.19195409 -0.06107362 -0.13325691 0.08658007 0.024180586
-0.0037835776 0.19354464 -0.021790918 -0.22460058 0.18765564 -0.1449028 0.002542642 -0.1675171
0.031023486 -0.26551637 -0.14719297 0.18479998 -0.002743346 0.25153562 -0.10378739 0.26867965
-0.035960637 0.19028544 0.13787454 -0.20104776 -0.24749182 0.24297908 -0.017440237 0.09344665
0.26230124 0.25949603 0.041974433 -0.21232462 -0.12128959 0.010995474 -0.05104496 -0.023711817
-0.10772585 0.11284294 0.22865783 -0.12735164 0.27163485 0.29838 0.110178635 0.1880127
0.18008558 0.088938504 -0.0894022 -0.0857463 -0.18418428 0.27892762 -0.20466205 -0.08168708
-0.25335672 0.23471014 -0.1883043 -0.23418386 -0.25607413 0.2869467 0.015653193 0.29552126
-0.13563184 -0.22975412 -0.071542725 0.12744728 -0.12887777 -0.0022545217 -0.28877938 -0.27225965
-0.13119926 0.095011204 -0.29474002 -0.2481908 0.19389969 0.034102313 0.05673419 -0.02590592
-0.22801809 0.26921192 0.104889184 -0.27643773 0.038603056 -0.04540506 0.21550575 0.2525926
-0.021926653 0.21215986 0.1942369 -0.2260864 -0.24384624 0.26791137 -0.19078667 0.14719974
-0.26147032 -0.07843755 0.048049737 0.0436245 0.12863268 -0.12627648 0.18819046 0.15872018
0.10217835 0.13494411 0.11491124 0.007884709 -0.029238012 0.06278412 -0.103325844 0.06532039
0.001413888 0.17476751 -0.02938606 -0.14371945 0.23624963 -0.0062549366 -0.2977258 -0.10647949
-0.237062 -0.0748471 0.287985 -0.14068125 0.06639809 0.106905185 -0.00036999676 0.104361266
-0.10375915 -0.0076448563 -0.27606168 -0.08092783 0.060140382 -0.21687144 0.14167231 0.21858239
0.117411576 0.062724195 -0.0432549 0.15396997 -0.0053939233 -0.2004247 -0.00095047546 -0.2539839
-0.11653435 0.05216904 0.18622912 0.24736986 0.030315809 0.11292848 -0.2046944 0.16543745
0.18884158 -0.014257914 -0.14011836 -0.25866124 -0.17682463 -0.28884375 0.19266133 -0.27338856
0.023636444 -0.08627628 0.21922049 0.15525264 -0.017542573 -0.2372069 0.16893393 0.3001407
0.053675562 -0.014829693 0.109872214 0.12763524 0.18141375 0.17988029 0.10093381 -0.20176695
0.15205178 -0.057522275 0.00831835 -0.10844528 -0.26650518 -0.11403479 0.14623816 0.087912545
0.021483986 0.1265917 0.21909708 0.110320285 -0.040261175 0.07957533 0.2093453 0.30248916
-0.16143264 -0.24132991 -0.16781963 0.06679033 -0.005818661 -0.18148072 -0.2865281 0.16524999
0.010373244 0.18107934 0.021238225 -0.0021978037 0.28998977 0.2853931 -0.2547889 -0.2852032
0.08675601 -0.1563522 0.18990056 -0.06784793 -0.1438129 -0.044866584 0.073749445 -0.09032559
-0.22424719 0.11660635 -0.15253161 -0.25586897 -0.17482387 -0.28886428 -0.29211327 -0.21666995

linear1.bias f4 [256]
00000000: 7cb0 ec3c 3a8e 56be 8642 8c3e 63dc a0bd
00000010: 583b 053e 7a6e 403e 7d01 95bc 5712 c93d
00000020: f179 51be da85 48bd 9c92 8e3e 4277 ad3d
00000030: b85b 3f3e 6c23 143e f97f 553d 0b8c 61be
00000040: d2e7 513d 9bb4 873e d8ad 4fbe e70e af3d
00000050: 6dd7 32be d103 033e 465f cf3d 7ee0 48be
00000060: 2dde 423e 627a 203e b4b7 103e 453d 22be
00000070: cd25 813e ab0f 48be f002 42be a61a 18bd
00000080: e244 8cbe e0e5 933d 640c 94bd 2963 cfbd
00000090: 36ae 163e 63b9 76be 6270 e2bd d877 453d
000000a0: 4f5b f1bd b062 023c 1cff 32bb 985a 89be
000000b0: 8b05 053e fc23 34bd b551 d43d d753 06be
000000c0: 95fd 8c3d 3a42 43be 4888 d93d c3d8 53be
000000d0: ab89 69be 7915 c93c ac57 ddbd f5ee 203e
000000e0: 62ef 35bd 944f 043e 047f 37bd 3515 0dbd
000000f0: 9735 773d c07f 93be 91a8 983c 3e12 403d
00000100: b190 203e 905d 643c d607 4c3e 3904 fbbc
00000110: 62aa 5f3e 75bd 383e fc17 113e 9136 933e
00000120: 815c 94be f703 6a3e b065 62be 055b 88be
00000130: 3ac2 4fbe 90a0 693e b566 b9bd 47d4 24be
00000140: b151 753e 5bd5 813e 6e56 44be 20c6 da3d
00000150: 6f28 be3c 2621 673d 918f 63bd 2bf0 58be
00000160: 71b7 ea3c d5c4 7e3e de60 d03d 8034 aa3c
00000170: a74b 91be 18f1 123e 4dd0 4d3e 5d24 30be
00000180: 9068 ed3d 1a62 843e 3f66 4f3e 2f36 403d
00000190: 2031 063e 698c 57be 55e0 4dbe 5ea4 8e3e
000001a0: f2fd 1b3e adc4 0dbe 43b0 5a3a f184 ae3d
000001b0: 2407 5d3d a8ff 16be af5a 7d3e 7b8c d23d
000001c0: 518a 0a3e 724c 75be f500 97bd 94cd 173e
000001d0: 2207 193e 218b 8f3e 5163 3fbe 354c 5fbe
000001e0: 2b2a 6abe fc42 a7bd 6f0e 8b3e 0573 0bbe
000001f0: 4895 d9bc fa39 83bd 44cf 03be fb2b dabd
00000200: 4161 673e 62c1 7bbe c5c8 8d3e de34 e83c
00000210: 8217 64be e067 7a3c 381f 4b3e fc17 543e
00000220: 3469 07be 8d58 2c3e a742 64bc 56a6 11be
00000230: 6192 70be 6320 e43d 415e d33a e5e0 12be
00000240: 127e dbbd a219 09bd c000 95be 6e0b 193d
00000250: 64b1 7a3d 82b2 b7bd abdd 523e 42a9 64bd
00000260: ba21 603e 6def 85be 3841 86be 8d28 85bd
00000270: 6d9c 5bbe 651f 783d e515 d03c 228c 79be
00000280: 8e5d 8fbe 1f21 35bd 8a02 943d d2c4 473e
00000290: 5150 233c 46de 5bbd 186c 48be da97 df3d
000002a0: e71c 54be 8498 55be ccc1 8dbe 9af5 8dbe
000002b0: 2f96 13be 5a86 06be 1aea b3bd a9b9 063a
000002c0: 8810 58be a83b 3f3e 6536 273e 9465 a6bd
000002d0: 892b 11be b591 17be 6b36 0e3e 88cb 73be
000002e0: 0472 94be 3ce8 853e c8bf 57be 8c36 ebbd
000002f0: 15b2 403e 868e 5d3e da6e 7bbe 9726 ff3d
00000300: 2879 9bbc 82ca 093e 9989 253e 2f39 843e
00000310: 3938 9dbc 1eab dcbc a52a 953d f286 813e
00000320: 486d 6f3d 3634 05be ff1a 533d 12c5 973e
00000330: 9ce9 2b3d 2f12 35be 74fb 45bc 7374 183e
00000340: 9b6a bf3d c248 8abd b9a3 4abe 9723 eabd
00000350: 9f09 1ebe a727 97be a3bb 713e 941c ac3d
00000360: 2866 85be 2119 80be 53b5 b63d ad89 f7bd
00000370: f529 83be 272c d6bd 2792 a9bd 45bd 923d
00000380: 6f6d 9abe 5a0e 86bc ba2c 2fbd 3583 223e
00000390: fbe1 2c3e 3575 e8bc 32f0 793e 5dce d1bc
000003a0: 98b6 f3bd f2d2 0b3e 04f4 68be 81bc 3ebe
000003b0: 71c5 cc3c 11a0 3dbe 1efc 1a3e 9b28 f5bd
000003c0: 4ce2 89be 6452 d23b 887b d0bd bb11 923e
000003d0: d15b 92bd 5201 293e b8d0 78be a3bd 55be
000003e0: 4e4a cbbd 6399 df3d 707d 663e 02fb 513e
000003f0: fac6 d4bc 23ff fabd d082 353e b7a3 23be
0.028892748 -0.20952693 0.27394503 -0.078545354 0.13010919 0.18792143 -0.018189186 0.09817951
-0.20456673 -0.048955776 0.2784623 0.08470012 0.18687332 0.14466637 0.052123997 -0.22026078
0.05124647 0.2650498 -0.2028116 0.08547764 -0.17464991 0.12794425 0.10125594 -0.19616887
0.19030066 0.15671685 0.14132577 -0.15843685 0.25224152 -0.19537227 -0.18946433 -0.03713479
-0.27396303 0.072215796 -0.07228926 -0.10126335 0.14714894 -0.24094157 -0.110565916 0.048209995
-0.11784994 0.007958099 -0.0027312702 -0.2682693 0.12990396 -0.04397963 0.10367147 -0.1311792
0.068843044 -0.19068232 0.10621697 -0.20688157 -0.22806422 0.024546372 -0.10807738 0.15716155
-0.044417746 0.12920982 -0.044798866 -0.034444053 0.06035384 -0.28808403 0.018635066 0.046892397
0.15680195 0.013938323 0.19924864 -0.030641662 0.2184234 0.18041022 0.14169306 0.28752568
-0.28976825 0.22853075 -0.22109103 -0.26631942 -0.20288935 0.22815156 -0.09052793 -0.16096602
0.23956944 0.2535809 -0.19173595 0.106823206 0.02321264 0.056428097 -0.055556837 -0.21185367
0.028651925 0.24879773 0.10174726 0.020776987 -0.2837803 0.14349782 0.20098992 -0.17201371
0.11592209 0.25856096 0.20253848 0.046926674 0.13104677 -0.21049656 -0.20105107 0.27859777
0.15233591 -0.13844557 0.0008342305 0.0852145 0.053961888 -0.14745963 0.24741624 0.10280701
0.13529326 -0.23954943 -0.073732294 0.14824516 0.14944127 0.28035834 -0.1869023 -0.21806414
-0.22867648 -0.08167073 0.2715945 -0.13618095 -0.02656044 -0.064075425 -0.12872034 -0.1065292
0.22595693 -0.24585488 0.27692237 0.028345522 -0.22274593 0.015283555 0.19836128 0.20712274
-0.13223726 0.16830654 -0.013931907 -0.14223608 -0.23493339 0.1113899 0.0016126112 -0.14343603
-0.107174054 -0.03347171 -0.29102135 0.037364416 0.06120433 -0.089695945 0.20592372 -0.05582548
0.21887866 -0.2615923 -0.26221633 -0.06501875 -0.2144639 0.060576815 0.025401065 -0.24369863
-0.28001064 -0.04422104 0.07227047 0.19508675 0.009967879 -0.053678773 -0.19572484 0.10917635
-0.2071415 -0.20858961 -0.27686918 -0.27726442 -0.14412759 -0.13137189 -0.08784886 0.000513936
-0.21100056 0.18675101 0.16329344 -0.08124843 -0.14176764 -0.14801677 0.13887946 -0.2380811
-0.28993237 0.26153743 -0.21069252 -0.11485013 0.18817933 0.216364 -0.24554005 0.12458532
-0.01897867 0.13456157 0.1616577 0.25824878 -0.019191848 -0.026937064 0.072835244 0.25298268
0.058453828 -0.13008198 0.051539417 0.2964254 0.041970834 -0.17682718 -0.012083877 0.14888172
0.09346505 -0.06752159 -0.19789018 -0.114325695 -0.15433358 -0.2952244 0.23606734 0.08403888
-0.26054502 -0.25019172 0.089213036 -0.120868064 -0.25617948 -0.1045764 -0.082798295 0.071650065
-0.30161616 -0.016364265 -0.042767264 0.15870364 0.1688308 -0.028376201 0.24408033 -0.025611097
-0.11900061 0.13654688 -0.22749335 -0.18626596 0.024996491 -0.18518092 0.15135238 -0.119706355
-0.26930463 0.006418513 -0.10179812 0.28529152 -0.07146419 0.1650441 -0.2429837 -0.20873122
-0.09926282 0.10917928 0.22508788 0.20505908 -0.025973786 -0.12255695 0.17725682 -0.15980421

linear2.weight f4 [3, 256]
00000000: 84a1 863c 8406 593d 967c 5b3d 5815 b13c
00000010: 5877 563c 6a2b 613d 906c 353d b4d9 cd3c
00000020: 0c1c ecbc 1835 2dbd 28f6 18bd c0b3 00bd
00000030: b20c 23bd 1404 6b3d 48a3 113d a853 3ebd
00000040: 68d1 0f3d f855 04bd 26be 243d 9892 5cbc
00000050: 7868 46bc c078 03bb e072 42bd 90fd 42bc
00000060: 74e0 a63c 9444 75bd 1497 323d b6dc 603d
00000070: a2b9 103d 64af 593d b02d 3c3c 38ce ca3c
00000080: 1cbd c9bc 80dd 0fbc a0b9 d03b f49a 13bd
00000090: 8cdf 203d d4aa a6bc b2f3 5abd c043 b73a
000000a0: 1aae 313d d003 823b b86d 233c 8af4 493d
000000b0: 0cfe 87bc 3a7e 7bbd b662 11bd fc28 033d
000000c0: 26e7 65bd dc44 3cbd 949f 97bc 8465 0fbd
000000d0: 5014 be3b 3c91 f13c 6a6f 273d 0037 ca3b
000000e0: 486d e93c 4057 113c 00fe a7b9 ba40 653d
000000f0: e627 283d c4df 8d3c 9894 56bd d064 64bd
00000100: 80a8 a1ba 62da 4e3d 5828 993c 8405 963c
00000110: de24 60bd 103d 4d3c 44dc 1e3d f817 41bc
00000120: 5c35 3ebd 7030 763c 0cd3 3dbd e02b 863c
00000130: 301b 34bc bc0e 7dbd aa87 5dbd 9e92 1dbd
00000140: 0019 26ba 54cc 90bc 4ce0 74bd d065 32bc
00000150: a8ee 62bc e40b a9bc 20da 51bb 2029 963b
00000160: bc89 6cbd 28ec 0e3c d2e9 2ebd c898 8bbc
00000170: 185f 09bc 9c14 b4bc 8009 7f3d c233 37bd
00000180: ea71 7abd 4e37 5d3d 223f 013d 0eec 463d
00000190: 0a7a 723d 10c1 c33c 48ec 383c 72ef 133d
000001a0: c0bd 7dbd 3af5 42bd 32f2 4e3d 1094 4f3c
000001b0: 72a8 34bd 98d2 59bd 30a0 b7bb e88f 433c
000001c0: 78c7 23bd b040 bcbb 4c7a f73c 3c6f 183d
000001d0: e894 653d 505a 003c c851 83bc 92e1 16bd
000001e0: 0298 39bd e868 88bc 7816 f03c 104d 72bc
000001f0: 4435 1a3d 407e cd3c 4ab5 0b3d 405f bcbc
00000200: b839 3abd c031 5dbb 4029 f83c 30a4 7abc
00000210: c8a6 613d 0eee 63bd 50b7 f93c 0005 f6bc
00000220: 8083 12bd 821d 7bbd 845c 9abc 54e6 713d
00000230: 70b9 8bbb 2839 133d 1c4b 8f3c e455 c23c
00000240: a4f4 bdbc 00d2 4ab9 2c0e 2abd b4ac b5bc
00000250: 886d 0e3c 008e 2e3b 8866 ba3c 04a3 28bd
00000260: 5037 103c 5c06 c7bc 309f 97bc 583f 4fbc
00000270: aaf2 4fbd 38be bf3c 5cac 783d 1c80 0cbd
00000280: f2fd 163d c039 bdba c094 703b 0a00 283d
00000290: 6cb5 0a3d f4e8 da3c 9416 f7bc fabf 673d
000002a0: b03e c2bb 4a2c 233d e0fd 323c 2018 abbc
000002b0: 6041 6ebd e2c1 23bd d293 2abd 6842 19bd
000002c0: e64c 14bd 98d2 c6bc 6809 04bd 7a18 7ebd
000002d0: d414 a1bc 788d dc3c 0089 97b9 d0d7 073c
000002e0: 8eab 6e3d e02e cf3c 98af 95bc f4bf aa3c
000002f0: da96 13bd 3488 60bd 22cf 443d 048d 8d3c
00000300: 5c80 bfbc 2831 cfbc 404f 453c 9c1d 0dbd
00000310: 0050 1e38 488a 58bc f8b1 3c3d 3476 c03c
00000320: faba 583d 3239 713d 3894 11bc f4c5 89bc
00000330: d230 4d3d 48a1 93bc d2fb 4c3d b8b9 50bd
00000340: ac14 e03c 5669 53bd 3474 1ebd 5838 9fbc
00000350: d0c9 cebc a08d b9bc 2834 48bd 228b 343d
00000360: f41f 0a3d e4a1 febc 68da 63bc b0e2 cf3c
00000370: d835 d1bc 5c8f f4bc 800f 79bd 0088 74ba
00000380: 0058 173b 027f 683d 3254 183d c462 85bc
00000390: 30f0 033c 9c26 783d d094 18bc d446 3f3d
000003a0: fe00 28bd 4e81 573d f087 7dbd 70cb 17bc
000003b0: 4ec4 5fbd a0eb 213c f0fb 90bc 0034 76ba
000003c0: b834 1dbc f046 e7bc 007d 46bb 10d8 75bd
000003d0: 000c 7e3b b226 0f3d 408a 7e3c 40f8 e2ba
000003e0: 9019 bf3c fcfb adbc 4c0a 503d 6e9d 163d
000003f0: c008 1fbc e0ae 14bc f064 7bbc 00db 323c
0.016434439 0.05298473 0.05358561 0.021616623 0.013089977 0.054973044 0.044292986 0.025128223
-0.028821968 -0.042286962 -0.037344128 -0.031421423 -0.03980703 0.057376936 0.035556108 -0.0464665
0.035111815 -0.03230855 0.040220402 -0.013462685 -0.012109868 -0.0020060986 -0.047472835 -0.011901274
0.0203707 -0.059879854 0.04360111 0.054897986 0.035333283 0.05314578 0.011485502 0.024756536
-0.024626307 -0.008780837 0.0063697845 -0.036036447 0.03927569 -0.02034513 -0.053455062 0.0013981983
0.043378927 0.0039677396 0.009974889 0.049305476 -0.016600631 -0.061399676 -0.03549453 0.032021508
-0.056128643 -0.045964107 -0.01850871 -0.035008922 0.0058007613 0.029488198 0.040877737 0.0061711073
0.028494492 0.0088709 -0.00032041967 0.05596993 0.041053675 0.017318614 -0.052387804 -0.055760205
-0.0012333542 0.050501235 0.018695995 0.018313177 -0.05472266 0.0125267655 0.03878428 -0.0117855
-0.046437606 0.015026197 -0.046343848 0.016378343 -0.01099281 -0.06178163 -0.054084457 -0.038469903
-0.0006336123 -0.017675556 -0.05978422 -0.010888532 -0.013850845 -0.020635553 -0.0032020882 0.004582539
-0.05774854 0.008723296 -0.042703457 -0.017040625 -0.0083844885 -0.021982484 0.06226492 -0.044727094
-0.061143793 0.05400782 0.03155435 0.048564963 0.059198417 0.02389577 0.011286803 0.036117025
-0.061948538 -0.047597148 0.050523944 0.012669578 -0.044105954 -0.053179353 -0.0056038126 0.011936165
-0.03998515 -0.005745016 0.030209683 0.037215456 0.05605021 0.007834032 -0.016030207 -0.036836214
-0.04531098 -0.016651586 0.029307589 -0.014788881 0.037648454 0.025084615 0.034108438 -0.022994637
-0.0454652 -0.0033751577 0.030293107 -0.015297934 0.055090696 -0.05564695 0.030482918 -0.030031681
-0.03576994 -0.061307438 -0.018842943 0.05905755 -0.004264049 0.03594318 0.01749187 0.023722596
-0.023187943 -0.00019342452 -0.04151742 -0.022177078 0.0086931065 0.0026634932 0.022753969 -0.04117109
0.00880225 -0.024295025 -0.018508524 -0.01264938 -0.05076853 0.023406133 0.06071125 -0.034301862
0.036863275 -0.0014436767 0.0036709756 0.041015662 0.033864424 0.026722409 -0.030162133 0.056579567
-0.005927883 0.03983716 0.010924786 -0.020885527 -0.058167815 -0.039979823 -0.04164488 -0.037416846
-0.03620615 -0.02427034 -0.032235533 -0.06203506 -0.019663252 0.026922926 -0.00028903037 0.0082912
0.058269076 0.025290906 -0.018272206 0.020843484 -0.036032535 -0.054817393 0.0480491 0.017279156
-0.023376636 -0.025291994 0.01204282 -0.034452066 3.774464e-05 -0.013216563 0.04606816 0.023493864
0.05291269 0.058892436 -0.008885436 -0.016818024 0.050095387 -0.01802124 0.050044842 -0.050958365
0.027353607 -0.051614128 -0.03868504 -0.019436046 -0.025242716 -0.02265054 -0.048877865 0.044078
0.03372188 -0.031083055 -0.013907053 0.025376648 -0.02553837 -0.029853515 -0.060805798 -0.0009328127
0.0023093224 0.05676175 0.03718967 -0.016282447 0.008052871 0.060583696 -0.009312823 0.046698406
-0.04101657 0.05261355 -0.06189722 -0.009264812 -0.05463057 0.0098828375 -0.017698258 -0.0009391904
-0.009595089 -0.028232068 -0.0030286908 -0.060020506 0.0038764477 0.034949012 0.015535891 -0.0017316416
0.023327619 -0.02123832 0.05079107 0.03677123 -0.009706676 -0.009074897 -0.01534389 0.0109164715

linear2.bias f4 [3]
00000000: 002c 9e39 b6fb 333d bbe7 16bd
0.0003016889 0.043941222 -0.03684209
